2025-11-15,04:04:11 | INFO | Running with a single process. Device cuda:0.
2025-11-15,04:04:11 | INFO | Loaded ViT-B-16-ProLIP-long model config.
2025-11-15,04:04:13 | INFO | Model:
2025-11-15,04:04:13 | INFO | ProLIP(
  (visual): VisionTransformer(
    (conv1): Conv2d(3, 768, kernel_size=(16, 16), stride=(16, 16), bias=False)
    (ln_pre): LayerNorm((768,), eps=1e-05, elementwise_affine=True)
    (transformer): Transformer(
      (resblocks): ModuleList(
        (0-11): 12 x ResidualAttentionBlock(
          (ln_1): LayerNorm((768,), eps=1e-05, elementwise_affine=True)
          (attn): MultiheadAttention(
            (out_proj): NonDynamicallyQuantizableLinear(in_features=768, out_features=768, bias=True)
          )
          (ls_1): Identity()
          (ln_2): LayerNorm((768,), eps=1e-05, elementwise_affine=True)
          (mlp): Sequential(
            (c_fc): Linear(in_features=768, out_features=3072, bias=True)
            (gelu): GELU(approximate='none')
            (c_proj): Linear(in_features=3072, out_features=768, bias=True)
          )
          (ls_2): Identity()
        )
      )
    )
    (ln_post): LayerNorm((768,), eps=1e-05, elementwise_affine=True)
    (uncertainty_proj): Linear(in_features=768, out_features=768, bias=True)
  )
  (text): TextTransformer(
    (token_embedding): Embedding(32100, 768)
    (transformer): Transformer(
      (resblocks): ModuleList(
        (0-11): 12 x ResidualAttentionBlock(
          (ln_1): LayerNorm((768,), eps=1e-06, elementwise_affine=True)
          (attn): MultiheadAttention(
            (out_proj): NonDynamicallyQuantizableLinear(in_features=768, out_features=768, bias=True)
          )
          (ls_1): Identity()
          (ln_2): LayerNorm((768,), eps=1e-06, elementwise_affine=True)
          (mlp): Sequential(
            (c_fc): Linear(in_features=768, out_features=3072, bias=True)
            (gelu): GELU(approximate='none')
            (c_proj): Linear(in_features=3072, out_features=768, bias=True)
          )
          (ls_2): Identity()
        )
      )
    )
    (ln_final): LayerNorm((768,), eps=1e-06, elementwise_affine=True)
    (text_projection): Linear(in_features=768, out_features=768, bias=True)
    (text_uncertainty_projection): Linear(in_features=768, out_features=768, bias=True)
  )
  (ts_mean): TSTransformer(
    (input_proj): Identity()
    (transformer): Transformer(
      (resblocks): ModuleList(
        (0-3): 4 x ResidualAttentionBlock(
          (ln_1): LayerNorm((768,), eps=1e-05, elementwise_affine=True)
          (attn): MultiheadAttention(
            (out_proj): NonDynamicallyQuantizableLinear(in_features=768, out_features=768, bias=True)
          )
          (ls_1): Identity()
          (ln_2): LayerNorm((768,), eps=1e-05, elementwise_affine=True)
          (mlp): Sequential(
            (c_fc): Linear(in_features=768, out_features=3072, bias=True)
            (gelu): QuickGELU()
            (c_proj): Linear(in_features=3072, out_features=768, bias=True)
          )
          (ls_2): Identity()
        )
      )
    )
    (layer_norm): LayerNorm((768,), eps=1e-05, elementwise_affine=True)
  )
  (ts_std): TSTransformer(
    (input_proj): Identity()
    (transformer): Transformer(
      (resblocks): ModuleList(
        (0-3): 4 x ResidualAttentionBlock(
          (ln_1): LayerNorm((768,), eps=1e-05, elementwise_affine=True)
          (attn): MultiheadAttention(
            (out_proj): NonDynamicallyQuantizableLinear(in_features=768, out_features=768, bias=True)
          )
          (ls_1): Identity()
          (ln_2): LayerNorm((768,), eps=1e-05, elementwise_affine=True)
          (mlp): Sequential(
            (c_fc): Linear(in_features=768, out_features=3072, bias=True)
            (gelu): QuickGELU()
            (c_proj): Linear(in_features=3072, out_features=768, bias=True)
          )
          (ls_2): Identity()
        )
      )
    )
    (layer_norm): LayerNorm((768,), eps=1e-05, elementwise_affine=True)
  )
)
2025-11-15,04:04:13 | INFO | Params:
2025-11-15,04:04:13 | INFO |   accum_freq: 1
2025-11-15,04:04:13 | INFO |   adamp: False
2025-11-15,04:04:13 | INFO |   aug_cfg: {'scale': (0.8, 1.0), 'color_jitter': (0.32, 0.32, 0.32, 0.08), 'color_jitter_prob': 0.8, 'gray_scale_prob': 0.2}
2025-11-15,04:04:13 | INFO |   batch_size: 32
2025-11-15,04:04:13 | INFO |   beta1: 0.9
…
